app/src/main/assets/false_smut_models.tflite (tflite, 14508 bytes, 7 tensors)

arith.constant f4 [1, 16]
000000 ef 0c 9e 3b e2 b2 0c 3f a7 17 27 3f 19 e3 ff be
       0.004823319 0.54960454 0.65270466 -0.4997795
000010 b3 d6 23 3f ec 13 0d bf 1b 22 90 be c7 45 31 bf
       0.6399948 -0.55108523 -0.2815102 -0.69247097
000020 5a e1 47 be fb 33 4b bd 23 56 9a 3d 9a df f0 3e
       -0.19519559 -0.04961012 0.075359605 0.47045594
000030 91 58 ca 3e 44 e1 a3 be 37 75 26 3f 57 08 88 be
       0.39520696 -0.32007802 0.65022606 -0.26568863

arith.constant1 f4 [16, 32]
000000 c4 0f 3c 3e df 8b 65 3e d7 47 bb 3e 01 4c f5 3d
       0.18365389 0.22416638 0.36578247 0.11977387
000010 86 d6 1b be a8 c8 db bd 28 5f 60 bd af fa 3e be
       -0.15218553 -0.107316315 -0.054778248 -0.18650316
000020 24 6d 32 3e b2 a0 09 3d 91 86 67 3e 2e 3f 81 bd
       0.17424446 0.033600517 0.22609927 -0.06310879
000030 93 02 ae 3e 1c e7 26 be cb 09 31 bd 78 bc 91 3e
       0.3398634 -0.16299099 -0.04322223 0.28464103
000040 e1 36 00 3e 04 fc 8c be 56 fd 5d be 52 77 50 3e
       0.12520935 -0.27536023 -0.21678671 0.20358017
000050 6b 9c ab 3a 89 47 e2 3d 52 a7 c5 bd 69 7c 75 be
       0.0013092881 0.110488005 -0.096510544 -0.2397324
000060 04 14 83 bd e1 c1 94 3e e6 61 28 3e 20 12 7b 3e
       -0.06400302 0.29054168 0.16443595 0.24518633
000070 32 a2 ab 3e 30 dc 1e 3d c6 ba 44 3e 74 fa b2 bd
       0.33522183 0.038784206 0.19211873 -0.087391764
000080 9f 3f a7 3d a5 96 92 be e3 81 b5 be b2 03 78 3d
       0.08166432 -0.28630558 -0.35450658 0.0605504
000090 2e e9 43 3e be 4d b2 be 24 bf a0 be b3 a7 05 be
       0.1913192 -0.34824938 -0.3139583 -0.13052253
0000a0 18 a6 81 be 89 3d 47 3e 18 0c 87 be 40 56 54 3e
       -0.25322032 0.19457068 -0.26376414 0.20736027
0000b0 ae 51 40 be 08 bb 96 3c ec 12 fe 3c e9 0d e7 3d
       -0.18781158 0.01839973 0.031014882 0.1128195
0000c0 ba 9b 8d be 65 db 90 3e 40 c9 1c be 76 e2 99 be
       -0.27657872 0.28292385 -0.15311146 -0.30055588
0000d0 17 25 9a 3e 04 77 81 bd 75 be a6 3e 9c b8 8c bd
       0.30106422 -0.063215286 0.32567182 -0.06871149
0000e0 a4 5a 52 3e 0c 45 00 3e 90 c4 83 be 43 fd 5e 3e
       0.20542389 0.1252634 -0.25735903 0.21776299
0000f0 47 ee 2b 3e d0 15 ad 3c c1 06 ac 3e d1 ca 55 be
       0.16790114 0.021128565 0.33598903 -0.2087815
000100 a0 9a 36 be d4 4d dc 3d 6e f2 8f be 0f 0a 8a 3e
       -0.17832422 0.10757032 -0.28114647 0.269608
000110 3a 91 1f be 3b 09 17 3e 2a 69 8c be 84 38 c1 3e
       -0.15582743 0.14749615 -0.27423984 0.3773843
000120 0a f2 72 3e 23 c2 d9 be 86 92 86 bd 91 ae 93 3e
       0.23725143 -0.42530927 -0.06570916 0.2884412
000130 ae fc 3f be 37 3b 37 be d1 16 c8 3e 09 95 8c 3d
       -0.18748733 -0.17893682 0.39079908 0.06864364
000140 08 a4 af 3e 2b c5 e9 3e b3 c1 d2 bc d2 de f1 be
       0.34304833 0.4565824 -0.025727129 -0.4724031
000150 ab f1 b7 3d 29 04 96 be 27 48 a4 3e 58 58 03 3f
       0.089816414 -0.2930005 0.32086298 0.51306677
000160 a5 47 85 3d 1a 6f 98 be 93 c6 94 3e 6c e5 a9 bd
       0.06507806 -0.29772264 0.2905775 -0.08295712
000170 14 bd 7e 3d 08 53 85 bd 00 c9 c5 3b 9b 73 ea 3d
       0.062192038 -0.065099776 0.006035924 0.11447831
000180 6a dd 3f be b0 45 9a 3e 8a c3 bb bd 7f 26 80 be
       -0.18736807 0.30131292 -0.091681555 -0.2502937
000190 d4 4c 89 be e6 a0 74 be 0e 0a 4b 3e ae b2 a4 3d
       -0.26816428 -0.23889503 0.19828054 0.08041893
0001a0 5f 0d 3e 3d 5a d1 77 3e e6 9b 32 3e 89 81 00 3d
       0.04639947 0.24200955 0.17442283 0.031373534
0001b0 7b 85 93 be 17 67 7b 3e 3f a9 0e be 0c a8 b4 3e
       -0.28812775 0.24551044 -0.1393175 0.3528446
0001c0 fb 09 7d 3d 2c 86 13 3e 98 bd 07 be 0d 2c af 3e
       0.061777096 0.14406651 -0.13255918 0.34213296
0001d0 b9 7c e7 bd 9d c5 85 3d 92 9e fd 3c e0 72 06 bd
       -0.11303086 0.06531832 0.030959401 -0.032824397
0001e0 c9 64 f9 3d b1 41 97 3e a7 bb a6 3e e8 90 bf be
       0.12177426 0.29542306 0.32565042 -0.37415242
0001f0 3a 10 a8 bc 87 21 ae 3e be 34 60 3e b0 34 d2 be
       -0.02051555 0.34009954 0.2189512 -0.41055822
000200 a1 f3 b5 be f4 78 49 3e 29 1d da bd d2 76 4f 3e
       -0.35537437 0.19675046 -0.10650093 0.2026017
000210 8c 23 c8 3d f5 54 25 be 8e d5 98 be f5 13 81 bd
       0.09772405 -0.1614569 -0.2985043 -0.063026346
000220 a0 3b bd 3e f2 b2 59 be c6 85 6d 3e 5f 78 4e 3b
       0.36959553 -0.21259668 0.23195562 0.0031504852
000230 c2 2a e8 be cf 92 8c 3e b8 26 ae 3e b8 72 73 be
       -0.45345122 0.27455756 0.34013915 -0.2377423
000240 c7 74 9a 3d 01 79 bc 3e 5c f8 90 bd c6 14 c3 bd
       0.07541805 0.3681107 -0.07078621 -0.095254466
000250 d8 4d 6a 3e d1 5e 07 3e 98 53 c6 bd 79 29 6c 3e
       0.22881258 0.13219763 -0.09683913 0.23062696
000260 d4 e6 92 be 18 78 98 3b 56 75 49 3e c2 d0 27 3e
       -0.28691733 0.004652988 0.19673666 0.16388229
000270 fd af 52 bc 2e 17 8f be d1 ee 86 3e 03 f0 83 3e
       -0.012859342 -0.27947372 0.26354077 0.25769052
000280 2f 43 96 be b6 41 97 be 43 d2 9b 3e cf 9a 8a 3c
       -0.29348132 -0.2954232 0.30433854 0.016919522
000290 2c 99 8a be e8 da 25 3e cc 15 7b be 00 88 48 3d
       -0.27069986 0.16196787 -0.24520034 0.048957825
0002a0 8f 56 51 3c 10 12 12 3e f5 e5 41 3e fa 3a a5 be
       0.012776985 0.14264703 0.18935378 -0.32271558
0002b0 d1 54 83 3e dd 2c 52 be b3 e1 f5 3d 50 91 a3 3e
       0.25650647 -0.20524926 0.12005939 0.31946802
0002c0 15 95 29 3e 08 2e 91 be 3a a9 04 3a 99 81 7b 3e
       0.16560777 -0.28355432 0.0005060617 0.24561156
0002d0 9c 07 c3 bd 30 09 a6 3e 86 1b 6e be 02 5c b0 be
       -0.09522936 0.32428885 -0.23252687 -0.34445196
0002e0 94 9f af be 07 74 57 be cb 84 93 be 78 31 7c 3d
       -0.34301436 -0.21040355 -0.2881225 0.061570615
0002f0 20 c9 b9 3d 3b 41 3d be cb 89 a7 3e fb af 0e be
       0.09071565 -0.18481915 0.32722315 -0.13934319
000300 a1 b5 50 3d 49 49 09 3e 74 15 55 3e 1a 20 89 be
       0.050954465 0.13406862 0.20808965 -0.26782304
000310 92 50 02 3e 25 c6 fd bd 8a 34 59 3e 9e 38 3b 3e
       0.12726048 -0.12391309 0.21211448 0.18283316
000320 a9 12 40 be 02 7b 17 be a1 f1 10 3e c4 e6 fc be
       -0.18757118 -0.14793018 0.14154674 -0.4939481
000330 7e 09 0a 3e 32 60 58 be 08 6b 27 be bc 33 b8 3e
       0.13480183 -0.21130446 -0.16349423 0.3597697
000340 da 8a 59 3e 42 fc 20 be f1 bb 42 3e 97 11 1a be
       0.21244374 -0.15721229 0.19017006 -0.15045772
000350 11 aa 54 3e 10 71 65 be 2c 62 5f 3e ad 3f 9a be
       0.20768 -0.22406411 0.21814793 -0.30126706
000360 94 86 a8 be 45 ab af be e3 79 97 3e fe 34 4e be
       -0.32915175 -0.34310356 0.2958518 -0.20137402
000370 ea e0 78 3e 35 f3 92 3e 03 c6 a6 3e 0e 46 83 be
       0.24304548 0.28701177 0.32572946 -0.25639385
000380 07 79 c4 be ea 45 cf 3e f5 5d 2b bd b8 94 a8 be
       -0.38373587 0.40483028 -0.04183765 -0.32925963
000390 21 00 9c 3e 1c cd 9d be 98 e5 77 bd 62 ff 8d 3e
       0.30468848 -0.3082055 -0.060521692 0.27733904
0003a0 70 35 a0 bd d5 8f bd ba 42 b5 f0 bd b6 b0 60 be
       -0.078226924 -0.0014462421 -0.11753322 -0.2194241
0003b0 00 46 c9 3d 98 95 f7 bd 56 bf 36 be f6 47 55 3e
       0.098278046 -0.120890796 -0.17846426 0.20828232
0003c0 8d 75 ea be 88 6c ed bd 7c c7 1d 3e 9d 8f 3e be
       -0.4579281 -0.11592966 0.15408128 -0.18609472
0003d0 cc 30 29 3e 40 59 dc 3c 71 ef 70 bd d5 ab cc be
       0.16522521 0.026898026 -0.0588221 -0.39974847
0003e0 a5 9d dd 3c 4d 5f 38 3e 80 33 04 bb bb 8a 2b 3e
       0.02705271 0.18005104 -0.0020172298 0.1675214
0003f0 63 b3 5b 3e 50 e5 86 bc d2 02 e9 bd d5 7c 9e be
       0.2145515 -0.016466767 -0.11377491 -0.30954614

arith.constant2 f4 [32, 64]
000000 5e 7d b3 3d 32 de 57 3e 00 d7 5b be 08 2c 48 be
       0.08764146 0.21080855 -0.21468735 -0.19548047
000010 36 d7 6a 3e 90 36 53 3e bb 40 81 bd 10 19 0e bd
       0.22933659 0.20626283 -0.063111745 -0.03469187
000020 46 02 21 3e 15 4f 19 3d 00 8e f5 bd 62 3b dc bd
       0.15723523 0.037428934 -0.11989975 -0.10753514
000030 61 01 97 be c9 4b fe bc 70 45 cf bd 70 54 6e 3d
       -0.2949324 -0.031041997 -0.10120666 0.058185995
000040 c7 8f 4e be e0 07 3f be cd 3d 6e bc 1b 5c 8a be
       -0.20172034 -0.18655348 -0.014541102 -0.27023396
000050 cb 2f 7f 3d e8 78 f9 bd cc 1f 61 3e 18 11 27 3d
       0.06230144 -0.12181264 0.21984786 0.040787786
000060 f2 14 aa 3e 47 ee 52 be 74 6f 07 be 2c e0 60 3e
       0.33219105 -0.20598708 -0.1322611 0.21960515
000070 c8 e3 4f 3e 89 24 44 3e e3 17 ee bc 3d ba 6a be
       0.20301735 0.19154562 -0.029064124 -0.22922607
000080 55 e5 11 bd 7c ce 2f 3e 22 36 12 be e7 46 ad 3d
       -0.0356191 0.17168611 -0.14278463 0.08460789
000090 65 4d 19 be e3 19 1a be 40 fb 5f 3d 28 e4 91 be
       -0.1497093 -0.15048937 0.05468297 -0.28494382
0000a0 b8 9c 8c bd 83 ad 20 3e 91 35 40 bd c8 09 5d be
       -0.06865829 0.1569119 -0.046926085 -0.21585763
0000b0 a3 97 37 3e 9a c3 66 be 80 cb a7 3c 55 01 c5 3d
       0.17928939 -0.22535554 0.020482779 0.09619395
0000c0 d3 33 46 ba 70 1f a3 bd 38 8c 32 3c b5 88 0c be
       -0.0007560823 -0.079649806 0.010897689 -0.13724025
0000d0 60 6a 35 be f5 fd 8c 3d 23 a5 4e 3e 00 d5 f5 3c
       -0.1771636 0.06884376 0.20180182 0.030008793
0000e0 74 a0 d1 bb 59 c2 89 bd 80 66 f1 bd 34 38 17 3e
       -0.0063973013 -0.06726522 -0.117871284 0.14767534
0000f0 e0 23 3c bd 58 e0 37 bd a0 a7 f2 bd 58 ab 2b 3d
       -0.04593265 -0.044891685 -0.11848378 0.041911453
000100 fd d2 51 be 4a e4 8f 3d e8 8a ff bd c8 71 45 3e
       -0.20490642 0.070259646 -0.12477666 0.19281685
000110 ea da 89 bc 98 f8 82 bd 7a db ba 3d f8 a0 30 3e
       -0.01682802 -0.06395072 0.09123893 0.17248905
000120 2d 8e 9a 3d 0d 2b 32 be 90 20 52 bd bd 5f 3e 3d
       0.07546649 -0.17399235 -0.051300585 0.046478022
000130 6f 9b a7 3d b4 5a 3a be f0 a6 5b bd e8 2e 00 3e
       0.081839435 -0.18198663 -0.053626 0.12517893
000140 ce 36 08 be e2 06 95 3d 9a 5c 35 3e 5a a1 ec 3d
       -0.13302156 0.072767034 0.17711106 0.11554213
000150 f4 c1 ab bd a8 d9 16 3e b2 74 49 be 56 c2 5d be
       -0.08386603 0.14731467 -0.19673422 -0.21656165
000160 d9 fc 94 3d a7 47 69 3d ab ed 22 be 94 f1 08 be
       0.07274789 0.0569531 -0.15910976 -0.13373405
000170 40 24 a1 bc 91 4e 50 3e 77 c3 55 3d 3b b7 4f be
       -0.019670606 0.2034247 0.052188363 -0.2028474
000180 db 07 88 3e db 5f 1d 3d 71 da 77 3e d3 05 5b be
       0.26568493 0.038421493 0.24204423 -0.2138894
000190 78 4e 25 3e ba 22 10 3e d8 4e a2 bd 96 9f 44 bc
       0.16143215 0.14075747 -0.079251945 -0.012000939
0001a0 78 a8 95 3e d9 1b 03 be 88 de 2d 3d 93 b8 25 be
       0.29230094 -0.12803592 0.04244855 -0.1618369
0001b0 76 68 ca 3d 10 de 24 be bc a0 08 be 55 18 5a 3e
       0.098832056 -0.16100335 -0.13342565 0.21298344
0001c0 bb 26 3a 3e 80 05 89 3c 4a 77 b3 3b 6c 9f 4d 3e
       0.18178837 0.016726255 0.005476867 0.20080346
0001d0 24 c1 69 3e 86 10 26 be ba c3 41 3c b8 2c d7 3d
       0.22827584 -0.1621724 0.01182645 0.10506576
0001e0 52 8a ba 3c 48 9a 75 3e c4 2b 4c be 72 51 0b be
       0.022771034 0.23984635 -0.1993857 -0.13605288
0001f0 40 e3 bb bd 1b f6 0e be c0 1c 56 3e 2d 86 05 3e
       -0.09174204 -0.1396107 0.20909405 0.13039465
000200 c9 37 ad bd 3c 56 4c 3e 38 33 c3 bd 40 8d 41 3d
       -0.08457906 0.19954771 -0.095312536 0.047253847
000210 5b 41 52 3d dc a6 0b be 9e a0 ce bd 20 3e ce 3d
       0.05133186 -0.1363787 -0.10089229 0.10070443
000220 d6 29 81 bc 68 49 9b 3e 80 7c 05 be d1 61 0e 3e
       -0.01576702 0.30329442 -0.13035774 0.13904501
000230 d9 72 8e 3d 78 2b 33 bc c8 12 e0 3d bc 4c 4f 3e
       0.06955499 -0.010935657 0.10941082 0.20244116
000240 7e ee 0a 3e fa 7c 87 3e 8f 5e 3a be 6a 93 cc 3d
       0.1356754 0.26462537 -0.18200134 0.099890545
000250 15 37 a7 3e e4 22 53 be b7 d3 74 3d 26 a9 fd bd
       0.32659212 -0.20618778 0.05977222 -0.12385778
000260 5b 10 80 3c 94 7c 55 be 33 6d 49 3e 58 b9 54 be
       0.015632799 -0.20848304 0.19670562 -0.20773828
000270 d4 e9 09 3e c8 f5 07 be 46 36 a5 3c 22 16 83 3d
       0.13468105 -0.13277352 0.020167481 0.06400706
000280 11 88 77 3e 32 aa 65 be eb eb 59 3d 34 df f0 3d
       0.24172999 -0.22428206 0.053203505 0.117613226
000290 1e 6c 31 bd 86 e6 d8 bd 28 08 7d 3e 16 65 89 3c
       -0.043316 -0.10590844 0.24710143 0.016771834
0002a0 be 23 f5 bd 21 d4 11 be af 93 16 be 24 85 d3 3d
       -0.11969708 -0.14241077 -0.14704774 0.10328129
0002b0 e2 85 b6 3d 17 fb a5 bd e8 e9 80 bd f2 45 9e bd
       0.08912255 -0.08104532 -0.06294614 -0.07728185
0002c0 60 b9 8a bc 7c aa 0a be 4c c4 13 3e 62 95 82 bd
       -0.016934097 -0.13541597 0.1443035 -0.06376149
0002d0 4c 14 20 3e 71 1d cb 3d e6 95 e3 bd 3c 52 5d 3e
       0.15632743 0.09917725 -0.11112575 0.21613401
0002e0 36 58 82 bd c0 4d 72 3e 18 f2 86 3d cc dc 00 be
       -0.06364481 0.23662472 0.065891445 -0.12584227
0002f0 20 6d e6 bd 99 e6 41 3e f0 85 69 be 70 80 d4 bc
       -0.11251283 0.18935622 -0.22805 -0.02594015
000300 4c 6f 12 3e 31 49 e1 bd a0 09 7f bd 28 0d 27 be
       0.14300269 -0.11000288 -0.06226504 -0.16313612
000310 e3 62 17 3d 1c 62 49 be c5 51 a5 be e0 6b da 3d
       0.03695954 -0.19666332 -0.32288948 0.10665107
000320 a6 6e d0 bb 65 d2 95 bd 80 29 da bc bb 8c e0 bd
       -0.0063608466 -0.0731552 -0.026631117 -0.10964342
000330 0e e9 ba be 0a 54 c5 3d 0c 46 74 be 70 92 06 bd
       -0.36505932 0.0963517 -0.23854846 -0.032854497
000340 47 45 a5 3e eb e4 2e 3e bb 5a f3 bc db 99 42 be
       0.32279417 0.17079513 -0.02970635 -0.19004004
000350 16 fd cd 3d fc 83 45 be 2c 81 81 3e 95 f2 e5 3d
       0.10058038 -0.1928863 0.25293863 0.112279095
000360 39 a3 ca 3d a6 0b a4 be e9 91 55 3e 00 ea a1 ba
       0.098944135 -0.32040137 0.20856442 -0.0012353063
000370 f4 05 7f be 9f ac 65 3e 47 da d6 3d 33 54 46 be
       -0.24904615 0.22429131 0.10490852 -0.19368057
000380 8c 36 38 3c b9 93 1e 3e 13 ca 8a be c5 de 3f 3e
       0.011243474 0.15486039 -0.27107295 0.18737324
000390 42 3d 76 be 45 22 6a be bc 5a 13 be 6f 63 34 be
       -0.24046806 -0.22864635 -0.14390081 -0.17616056
0003a0 fb a7 5c be fa e1 a8 be 91 55 71 be 32 32 15 be
       -0.21548454 -0.32984906 -0.23567797 -0.14569929
0003b0 3d 0c c2 bd f7 51 07 be a0 c9 09 3d 62 30 06 3e
       -0.094749905 -0.13214861 0.03363955 0.13104394
0003c0 6e 12 34 3e 8c e5 3c be 32 c3 2d bc 68 87 f5 bc
       0.17585155 -0.1844694 -0.01060562 -0.029971793
0003d0 f7 65 1f be 6e 81 9d 3d 67 85 51 be 48 ef c8 3d
       -0.1556624 0.076907024 -0.20461045 0.09811264
0003e0 56 28 6d 3c 77 3d dc 3d 40 15 a2 bd fb bb 85 3e
       0.014474949 0.10753911 -0.07914209 0.2611998
0003f0 c0 23 4c 3c 1a cd 0f bd 18 05 da bd 84 0c a9 be
       0.012459695 -0.03510771 -0.10645503 -0.3301736

arith.constant4 f4 [16]
000000 5c ae 9d 3c 41 5f 8a bc 87 91 11 bd 7d bd 40 3d
       0.01924818 -0.016891124 -0.035539176 0.04705571
000010 22 43 16 3c e9 86 db 3c 15 6c 8e 3d 48 e7 4d 3d
       0.009171279 0.026797729 0.06954209 0.050269395
000020 f7 3c 81 3d b3 7c b1 3c 82 4b 53 3c d4 41 e9 bc
       0.06310456 0.021665907 0.01289642 -0.028473772
000030 4e 22 38 bc c2 8a ef 3c 14 3d be bc 94 57 66 3d
       -0.011238648 0.02924097 -0.023222484 0.056235865

arith.constant5 f4 [32]
000000 bb f4 3a 3c 8c 81 4b 3d 8b 73 65 3d 17 dd 9d 3c
       0.011410887 0.049684092 0.056018393 0.019270463
000010 00 00 00 00 ac dc bd bc 00 00 00 00 2f e8 32 3d
       0.0 -0.023176514 0.0 0.04367846
000020 8e b3 87 bd 57 55 4b 3d ae 19 8e 3a a0 80 48 bc
       -0.06626044 0.049641933 0.0010841393 -0.012237698
000030 08 cd 98 3d d8 e0 44 3b a5 77 b7 bd 8f 4b 5c 3d
       0.074609816 0.0030041244 -0.08958367 0.053782996
000040 6d cb 2b bc a7 52 3d bd f4 aa 8b bc 33 4f 35 3d
       -0.010485512 -0.0462214 -0.01704929 0.044264983
000050 ff 58 9c bc b1 23 3d bc 63 eb d5 bc 99 dc 8d bc
       -0.019085405 -0.011544154 -0.026113218 -0.017317103
000060 66 af d5 bc 14 86 c9 3c 00 00 00 00 ff 96 8b bd
       -0.026084613 0.024600066 0.0 -0.068159096
000070 f9 8e e6 bc 00 00 00 00 00 00 00 00 7a 14 8e bd
       -0.028144347 0.0 0.0 -0.06937499

sequential_37_1/dense_148_1/Add/ReadVariableOp f4 [64]
000000 3c a1 3f bc d9 4b c3 3d 00 00 00 00 00 00 00 00
       -0.011696156 0.09535951 0.0 0.0
000010 c8 8c cc 3d 00 00 00 00 1e f2 6d 3d 00 00 00 00
       0.099877894 0.0 0.05809223 0.0
000020 da ca 48 3d ee 00 40 3d 00 00 00 00 18 01 99 bd
       0.04902158 0.046875887 0.0 -0.07470912
000030 d5 72 c8 3c ea 95 56 bd 00 00 00 00 00 00 00 00
       0.024468819 -0.052389063 0.0 0.0
000040 4a d1 83 bc 21 f5 48 bc c6 cd aa 3d 60 5c f0 bc
       -0.016091008 -0.012265475 0.083400294 -0.029340923
000050 50 2c b1 3d 06 38 d2 bd 4b 80 d7 bb a7 3e 78 bc
       0.0865103 -0.10264592 -0.006576573 -0.015151656
000060 cc 88 fd 3d 72 94 28 bd 61 9e 98 3d 00 00 00 00
       0.123796076 -0.041157193 0.074520834 0.0
000070 00 00 00 00 d8 23 e5 3c 5d 6d 3c 3d 9f 1d ba bd
       0.0 0.027971193 0.046002734 -0.09087681
000080 a7 84 52 3d d0 22 99 bc 82 c9 8d 3d 09 d9 85 3d
       0.05139604 -0.018693358 0.069232 0.06535537
000090 ef a0 57 bc 80 be f4 bd 00 00 00 00 d4 9f 26 3c
       -0.013160928 -0.119503975 0.0 0.010169942
0000a0 73 14 b2 bc e7 8d 40 bc 4c 01 9b bd cb 54 83 bc
       -0.021738267 -0.011752582 -0.07568607 -0.016031643
0000b0 d3 cf cd bc 60 f6 f8 bc 00 00 00 00 ab d5 93 3d
       -0.025123512 -0.030390918 0.0 0.07218488
0000c0 bb 1c 85 bd 00 00 00 00 d6 18 ac 3b 0f 4e a4 3c
       -0.064996205 0.0 0.005251984 0.020056752
0000d0 bd f9 86 bd 6a 99 97 3d 45 6f b2 3d 00 00 00 00
       -0.065906025 0.07402308 0.08712629 0.0
0000e0 44 75 9d bd 8c 55 8d 3c 00 00 00 00 9d eb 98 3d
       -0.07688382 0.017252706 0.0 0.07466815
0000f0 00 00 00 00 40 db 6b 3d 00 00 00 00 23 1a ff bc
       0.0 0.05758214 0.0 -0.031140393

sequential_37_1/dense_148_1/MatMul f4 [64, 5]
000000 ec dc 2f be cc b8 29 3e a4 96 97 be a4 e7 1c 3e
       -0.17174119 0.165744 -0.29607117 0.15322739
000010 66 e2 1f be 2f 09 88 3e 7a ab bf 3d 74 ef 86 3d
       -0.15613708 0.26569507 0.093588784 0.06588641
000020 1d 78 2c be 48 75 a5 3c 99 05 83 be 08 29 bc 3d
       -0.16842695 0.020197526 -0.25590208 0.091875136
000030 48 8d 6d be 3a b6 07 3e 66 a2 e5 bd 57 df 1b be
       -0.23198426 0.13253108 -0.11212616 -0.15221916
000040 2e 27 17 3e 00 7a df ba e5 64 73 be 68 04 0c bd
       0.1476104 -0.0017049909 -0.23768957 -0.03418389
000050 dc 12 93 3d 94 92 81 3e 3f 1e 2d 3d f2 c8 5f be
       0.071813315 0.25307143 0.042265173 -0.21853998
000060 51 9c 23 3e c2 58 85 bd 38 a4 96 3d cc 4a 95 bd
       0.15977599 -0.0651107 0.07355541 -0.07289657
000070 f8 a0 56 3d 02 14 3e be 91 1d 75 3e f1 fd f2 3d
       0.052399606 -0.1856232 0.2393706 0.11864842
000080 40 f5 cc bc 00 21 42 bd bd a9 59 be 38 cc 50 3d
       -0.025019288 -0.047394753 -0.21256156 0.05097601
000090 f9 d0 94 be 10 9d c6 bc 48 9b 89 be 17 35 81 be
       -0.29065683 -0.024244815 -0.26876283 -0.25235817
0000a0 d1 8d 58 3d 56 a5 a7 3e 8d 9e f2 3d a1 4c b0 bd
       0.05286962 0.3274333 0.118466474 -0.08608366
0000b0 32 9c a2 bd 34 44 5f 3e e4 ef 63 be 3a f4 73 be
       -0.07939948 0.21803361 -0.2225948 -0.23823634
0000c0 60 a4 81 3e 4a 18 e8 bb bd 1b 04 be 14 b9 aa bd
       0.2532072 -0.0070829736 -0.12901206 -0.08336082
0000d0 90 63 13 bd 50 c4 22 3e 69 55 91 be 05 ae 9e bd
       -0.035983622 0.158952 -0.28385475 -0.07748035
0000e0 2b 5f 03 3e 81 12 2b 3e 4c 62 67 3e 8b 2b cb be
       0.12829272 0.16706277 0.22596091 -0.39681658
0000f0 22 43 2e 3e 42 d3 3a 3e 55 43 a5 be 46 58 87 be
       0.17017797 0.18244651 -0.32277933 -0.26434535
000100 37 c1 b0 bd ff 64 1f 3e 2f 18 3f 3e 5d f6 3a 3e
       -0.08630603 0.1556587 0.18661569 0.18258043
000110 12 60 4d 3d 79 3f 92 bd 08 ea 1e bd 7a 3a 55 be
       0.050140448 -0.07141013 -0.03879741 -0.20823088
000120 ae fd 83 bd 30 d7 84 3c 8a 2d 7f be 7a 08 34 be
       -0.0644487 0.01621589 -0.24919716 -0.17581359
000130 40 5c 91 be af 13 38 be a0 60 27 bd a0 53 14 3d
       -0.28390694 -0.17976259 -0.040863633 0.036212564
000140 b7 10 a3 3d ab fe e4 3d 20 5a 9b 3e 89 8f f3 3d
       0.079621725 0.111813866 0.30342197 0.118926115
000150 c9 7e 38 be 37 aa 36 be 17 5d 3e be cc 42 4b be
       -0.18017115 -0.1783837 -0.18590198 -0.198497
000160 36 39 af bd ac 7f 47 3e c1 1f 54 be d3 0f 13 3c
       -0.08555834 0.19482297 -0.20715238 0.008975941
000170 24 4c aa 3e 20 49 c6 bd de b2 19 bd 33 e3 e4 3d
       0.33261216 -0.09681916 -0.037524097 0.11176147
000180 cf 91 19 3d 68 7a 55 be 4c 28 94 3d 27 53 dd bc
       0.03749257 -0.20847476 0.072342485 -0.02701719
000190 b0 de 2e be 1c 87 8b 3e 66 28 2f ba 92 ee 13 be
       -0.17077136 0.27251518 -0.000668174 -0.14446476
0001a0 63 48 ef 3d 59 df 3b 3e 3b 9e 05 be ec 71 91 3e
       0.116837285 0.18346919 -0.13048641 0.28407228
0001b0 12 75 b7 3e a7 d4 84 be 1a e0 7b bd b0 ab 61 3e
       0.35831505 -0.2594349 -0.061493017 0.2203815
0001c0 a5 30 ba 3c b8 c0 c6 bd e2 54 14 be 10 c1 6f 3e
       0.022728274 -0.09704727 -0.14485505 0.23413491
0001d0 75 d0 21 3e 4f ba 4d be 4f 26 f8 3d c6 97 e5 bd
       0.15802176 -0.20090602 0.12116682 -0.11210589
0001e0 a1 f9 05 3e c3 34 07 be 91 c2 f0 bd af f2 69 3d
       0.13083507 -0.13203721 -0.117558606 0.057116207
0001f0 ac e3 7b 3e 1f cd 07 3d 04 26 cc 3d 4a 2e 73 3e
       0.24598569 0.033154603 0.099681884 0.23748127
000200 98 ca 5c 3e 57 52 9d be 5e a9 03 be ca 15 28 3e
       0.21561658 -0.30726883 -0.12857577 0.16414562
000210 3b 5a ca 3d 13 c2 ee bd 05 7b 1c 3e d2 58 24 3e
       0.09880491 -0.116581105 0.15281303 0.16049507
000220 52 d6 42 be 0d 46 2a be 44 67 90 be 53 76 8d be
       -0.19027069 -0.16628285 -0.28203785 -0.27629337
000230 ca 9f 54 be 3e c2 40 be 3c 32 f8 3d a0 a3 61 bd
       -0.2076408 -0.18824098 0.121189564 -0.055087686
000240 fd 71 68 be 0e 09 b9 bc 8b 65 d4 3d 8f 9b 6c be
       -0.22699733 -0.022587325 0.1037093 -0.23106216
000250 3d f7 91 3e 49 22 fe 3d 70 97 e8 3d 69 03 f6 bd
       0.2850894 0.12408883 0.113570094 -0.12012369
000260 4a 45 6e be 7a 7b 5c 3e 3e 7b 0f 3e a7 83 4b be
       -0.23268619 0.21531478 0.14011857 -0.1987444
000270 ee 78 97 bd f7 3a 66 3e 5d db 50 3e ae 50 61 be
       -0.073961124 0.22483431 0.2039618 -0.22003433
000280 f6 b7 c7 bd cf 23 53 3e bb 48 93 3d 68 99 5f 3e
       -0.09751885 0.20619129 0.071916066 0.21835864
000290 99 82 76 3e d9 76 8f 3d f1 65 0c be f7 f8 02 be
       0.24073257 0.0700509 -0.13710763 -0.12790285
0002a0 c9 44 c2 3d 53 62 9a bd 5c 56 76 be 06 47 2d bd
       0.09485776 -0.07538285 -0.24056381 -0.04230406
0002b0 7e 1e 8a be 49 28 a7 3e 62 20 e5 3d 4c b9 d2 3d
       -0.2697639 0.32647923 0.11187817 0.10289249
0002c0 69 3d 3a 3d 7a 21 2b be 3e 2b a9 3d 5c b7 93 3e
       0.04546872 -0.16711989 0.08260201 0.2885083
0002d0 4a 0c fe 3d 13 e6 9a be 3b 45 73 bd 41 a5 33 bd
       0.12404688 -0.30253658 -0.059392195 -0.04385877
0002e0 49 e3 31 3e d1 d1 a3 be c9 e4 70 3d 04 f4 35 3e
       0.17371859 -0.31996015 0.058811937 0.17768866
0002f0 01 9f 8a 3e 85 fd d1 3c ae 38 65 be b0 3e f9 3c
       0.27074435 0.025633583 -0.22384903 0.0304254
000300 54 e7 86 be e4 91 3d be f8 1e eb 3d 95 48 3d be
       -0.26348364 -0.18512684 0.11480516 -0.18484719
000310 b9 d9 05 be e9 3c 5e 3e 70 de 57 be e0 2a 13 3d
       -0.13071336 0.21702923 -0.21080947 0.03592956
000320 72 23 9f 3e f2 ca 30 3e 2b 94 83 3e 38 02 5e 3e
       0.3108173 0.17264917 0.2569898 0.21680534
000330 0a bc 5c be 31 fb 5e 3b 90 cf 5d bc fd 90 8c 3e
       -0.21556106 0.0034024233 -0.013538256 0.27454367
000340 dc 62 6d 3c 2f 4d a0 be 05 07 8b bd 4d 6e 65 3e
       0.014488902 -0.31308886 -0.06788448 0.22405358
000350 a3 40 58 3e b9 83 71 3e dd c0 78 3d 58 40 96 be
       0.21118407 0.23585404 0.060730804 -0.29345965
000360 00 c2 c4 3c 74 83 4d be e2 7f f4 bd 1a c1 c2 3d
       0.024018288 -0.20069677 -0.11938454 0.095094875
000370 60 4a 29 3b 92 ca 9a 3e 73 c4 56 be 11 24 76 3d
       0.0025831684 0.30232674 -0.20973377 0.06009299
000380 0c 32 06 3d 6f d9 0e 3e 09 01 00 3e 21 ed 07 be
       0.032762572 0.13950132 0.12500395 -0.13274051
000390 01 17 01 3e 09 19 d0 bd a0 2d 70 bc dd d4 0a be
       0.12606432 -0.10161025 -0.014659315 -0.13557763
0003a0 56 9f 57 be bc b2 55 be 86 46 6a be cb 32 80 3e
       -0.21056876 -0.20868963 -0.22878465 0.25038752
0003b0 07 1b 1c bd 31 d5 f0 bc 6f 85 82 be bf de 95 3e
       -0.038111713 -0.029398533 -0.25492427 0.29271504
0003c0 79 d0 51 be 54 a4 26 3d a5 70 2a 3e 5e 34 60 3e
       -0.20489682 0.04068406 0.16644533 0.21894976
0003d0 f4 c8 b8 3d a0 07 6a bc 48 56 32 bd ea d3 86 be
       0.09022704 -0.0142840445 -0.043539315 -0.26333553
0003e0 36 44 3d be ae f5 83 bd 86 07 29 3e 6b 4e 32 be
       -0.18483052 -0.06443344 0.16506776 -0.17412727
0003f0 ce 6c 06 be af 96 7e be ce 11 50 3e 1b 69 33 3c
       -0.13127443 -0.24862169 0.20319292 0.010950352
