app/src/main/assets/false_smut_model.tflite (tflite, 2600 bytes, 5 tensors)

arith.constant f4 [1, 10]
0	0x3ea6d594	0.32584822
1	0xbf0110de	-0.5041636
2	0x3e9b1406	0.30288714
3	0xbe6371ea	-0.22211424
4	0xbf0d03fa	-0.5508419
5	0x3f22a557	0.6353354
6	0x3eae94a5	0.34097782
7	0xbe5423e7	-0.2071682
8	0xbe28ec8a	-0.16496482
9	0x3ebfb9f6	0.37446564

arith.constant1 f4 [10, 10]
0	0xbea4a6d9	-0.32158545
1	0xbe781489	-0.24226584
2	0x3c5e3c77	0.013564221
3	0x3d91688b	0.07100018
4	0xbed3068e	-0.41215938
5	0xbc676fa1	-0.0141257355
6	0xbf01deec	-0.50730777
7	0x3eab4b63	0.33455953
8	0xbe2761c6	-0.16345891
9	0x3ee365a0	0.4441347
10	0x3eafaf3b	0.34313378
11	0xbd8c25b4	-0.06843129
12	0xbeaa85c1	-0.3330517
13	0x3e9bcdc0	0.30430412
14	0xbdad2509	-0.084543295
15	0x3f0565b1	0.52108294
16	0xbe9d96c2	-0.30779082
17	0x3ece350f	0.40274855
18	0x3dd07732	0.10178985
19	0xbf06fa1b	-0.5272538
20	0xbd8144e9	-0.06311972
21	0xbe858b1c	-0.26082695
22	0x3eab6dad	0.33482113
23	0xbeb1a348	-0.34694886
24	0xbeeebe83	-0.46629724
25	0x3e338f8e	0.1753523
26	0x3e46f7d0	0.1943047
27	0xbf236366	-0.63823545
28	0xbe6d54bc	-0.23176855
29	0x3d9a65a6	0.07538919
30	0x3f1cc0c9	0.61231667
31	0xbe36c0a0	-0.17846918
32	0x3d039f9b	0.032134634
33	0x3eb44d51	0.35215238
34	0x3ddee91c	0.10884306
35	0x3e7e89f4	0.24857312
36	0x3e950b4d	0.29110184
37	0x3e0dc8e6	0.13846168
38	0xbf2115b6	-0.62923753
39	0x3f191cc7	0.59809536
40	0xbd9c424d	-0.07629833
41	0xbdf1c63f	-0.118053906
42	0x3ee25eaa	0.44212848
43	0x3ebd5af0	0.36983442
44	0xbdd256f9	-0.10270495
45	0x3dd5859a	0.10425873
46	0xbf09810e	-0.53712547
47	0xbe7ead5f	-0.24870823
48	0x3e474254	0.19458896
49	0x3e4cd98d	0.20004864
50	0x3e2854ad	0.16438551
51	0x3ebd53c7	0.3697798
52	0x3db11bef	0.08647906
53	0x3e5ab043	0.21356301
54	0x3ee5e5a3	0.4490176
55	0x3e5f5241	0.21808721
56	0x3e61a5de	0.2203593
57	0x3e2cca2b	0.16873996
58	0x3e82567b	0.25456604
59	0x3e85e434	0.26150668
60	0xbed7d9e6	-0.4215843
61	0xbe6f6f8d	-0.23382397
62	0xbef6b324	-0.48183548
63	0xbea99d85	-0.3312799
64	0xbf11493e	-0.56752384
65	0xbe66445e	-0.22487018
66	0x3f016ef7	0.50559944
67	0xbee4a972	-0.44660527
68	0x3ddd7a62	0.10814358
69	0xbe6e96e0	-0.23299742
70	0x3e8a3b9b	0.269986
71	0x3eb6056d	0.35551015
72	0x3e00eb14	0.12589675
73	0x3d53bfd1	0.051696602
74	0x3dd85a9a	0.10564156
75	0xbebe4074	-0.3715855
76	0x3f0c4179	0.54787403
77	0xbd807baf	-0.06273591
78	0xbeb4d7f1	-0.35321
79	0xbe7c7c63	-0.24656825
80	0xbeca605b	-0.39526638
81	0xbe8762a6	-0.2644245
82	0x3f084d27	0.53242725
83	0xbec12344	-0.37722218
84	0xbe3eaa27	-0.18619595
85	0x3da3b57f	0.07993602
86	0xbd65d6d6	-0.056113087
87	0x3e84c709	0.25933102
88	0xbdb770bd	-0.0895705
89	0xbd24ab14	-0.040202215
90	0xbf1ba9b7	-0.6080584
91	0xbecd74f0	-0.4012828
92	0x3e352ddd	0.17693277
93	0x3ecc4673	0.39897498
94	0x3f0aff84	0.54296136
95	0x3e6843a1	0.22682048
96	0x3e66d818	0.2254337
97	0xbec94e7c	-0.3931769
98	0xbed8cd36	-0.42344064
99	0xbf0dae22	-0.5534383

arith.constant3 f4 [10]
0	0x3e6d1c80	0.23155403
1	0xbd9f0a06	-0.07765584
2	0x3e064a08	0.13114178
3	0xbe0a13eb	-0.1348416
4	0xbe3334fd	-0.17500682
5	0x3d53249f	0.051548596
6	0xbd4e604b	-0.0503848
7	0x3db8367d	0.08994768
8	0xbd6cf672	-0.057852216
9	0xbbc86405	-0.006115439

sequential_1_1/dense_3_1/BiasAdd/ReadVariableOp f4 [10]
0	0xbe34efbe	-0.1766958
1	0xbd3acb61	-0.045604113
2	0xbd97a92b	-0.07405313
3	0xbdff58fb	-0.124681436
4	0xbda11555	-0.07865397
5	0xbddb3563	-0.10703542
6	0xbd939c36	-0.07207529
7	0xbe31a9e2	-0.17349961
8	0xbd8f2ce9	-0.06990988
9	0x3e09589a	0.13412705

sequential_1_1/dense_3_1/MatMul f4 [10, 5]
0	0x3f3074df	0.6892833
1	0x3e447232	0.19184187
2	0x3edb2716	0.42803258
3	0x3e8b2cf4	0.27182734
4	0xbdc12a41	-0.094318874
5	0x3e2ed070	0.170717
6	0x3e52607a	0.20544615
7	0xbc26fd8c	-0.010192286
8	0x3ec9d1d8	0.3941791
9	0x3f22b1a3	0.635523
10	0x3f09506d	0.53638345
11	0x3d238e39	0.039930556
12	0x3ecbd980	0.39814377
13	0xbe45b72d	-0.19308157
14	0xbea8bc63	-0.32956228
15	0xbe7360a6	-0.23767337
16	0xbf1d3ac2	-0.6141778
17	0x3e8f99ac	0.2804693
18	0x3e81174d	0.2521309
19	0x3efb7c26	0.49118155
20	0x3d11e189	0.035615478
21	0x3f0b45a3	0.5440313
22	0xbe375748	-0.17904389
23	0xbe439602	-0.19100192
24	0xbe2b28fd	-0.16714855
25	0xbe8739b6	-0.26411217
26	0xbe9c8997	-0.30573723
27	0x3e599bc3	0.21250825
28	0xbd173771	-0.036918107
29	0x3f23bc7e	0.6395949
30	0xbf0908d3	-0.5352909
31	0x3d8b5328	0.0680297
32	0xbdb6e857	-0.08931034
33	0x3ed5737d	0.41689673
34	0xbd2bf2b5	-0.04197951
35	0xbf2d7f84	-0.677727
36	0xbea7271d	-0.3264703
37	0x3b1222e9	0.002229864
38	0xbd0ef848	-0.03490475
39	0x3f08af29	0.53392273
40	0xbed0832b	-0.40725073
41	0xbf0bbe2e	-0.54587066
42	0x3efd95f6	0.49528474
43	0xbf18e920	-0.5973072
44	0x3e1733ab	0.14765804
45	0x3f06d52b	0.5266902
46	0xbe1e2b8a	-0.15446296
47	0xbe67f5ce	-0.22652361
48	0x3e809568	0.25113988
49	0x3cff3272	0.031151984
