app/src/main/assets/rice_blast_models.tflite (tflite, 14508 bytes, 7 tensors)

arith.constant f4 [1, 16]
000000 b0 b4 b5 be 79 e8 9c be 60 5e 0f bf 50 e5 1d 3d
       -0.35489416 -0.30646113 -0.5600338 0.038548768
000010 86 a3 36 3f 20 75 5d 3d 3f 97 80 be 78 6a 33 3e
       0.71343267 0.054066777 -0.25115392 0.17521083
000020 eb 53 8c be 49 45 64 3e 17 4f d9 3e 34 c3 5f 3e
       -0.27407774 0.22292055 0.42443153 0.21851808
000030 e1 7f 1e bf 96 7d 53 be 57 31 2a bc 2e 12 4f 3e
       -0.6191388 -0.20653376 -0.01038774 0.20221779

arith.constant1 f4 [16, 32]
000000 58 c1 30 3e a0 69 b9 3e 18 9c 42 3d 9d 2e 8f bd
       0.17261255 0.36213398 0.047512144 -0.06991313
000010 ab 89 5a be 08 8f 4e 3d 40 94 39 3d 8b 66 b3 3b
       -0.21341579 0.050429374 0.045307398 0.0054748706
000020 7e 7e 9b 3e b0 54 96 3e 4d 24 86 3e 1d 23 9d 3e
       0.30369943 0.29361486 0.2619957 0.30690852
000030 e4 97 4b bd 72 ff db 3c 30 21 22 be af 0a 3b be
       -0.0497054 0.026855204 -0.15832973 -0.18265794
000040 15 1c 61 be e2 d6 f0 bc 5c 08 ab be 0f a5 ac 3e
       -0.21983369 -0.02939934 -0.33404815 0.3371968
000050 af 72 c5 bb 78 27 d3 3d 2f 56 53 be 10 e2 50 3d
       -0.0060256342 0.103102624 -0.20638345 0.05099684
000060 83 11 64 be 7d c8 97 be f4 c1 de 3d e8 ce 3d 3e
       -0.22272305 -0.29645148 0.108768374 0.1853596
000070 4b 51 75 bc 80 7a 22 bd 5d 9e 88 3d ed cf dc bd
       -0.014972995 -0.039667606 0.066708304 -0.10781846
000080 8d bd df 3d 08 9c 6b 3e 69 30 3f 3d a2 8f c1 bd
       0.10924826 0.2300874 0.046677027 -0.09451224
000090 0a e2 6e 3e ec 20 80 bd fb 9f 8c be b8 c0 a5 3e
       0.23328415 -0.06256279 -0.27465805 0.32373595
0000a0 67 14 51 bd 67 7a 26 3e c0 8c 4d bd c6 66 04 3e
       -0.051044848 0.1625763 -0.050183058 0.1292983
0000b0 96 84 7d 3e 44 2a 59 3e f1 39 2d 3e 0a 37 7c be
       0.24757609 0.2120753 0.16916634 -0.2463037
0000c0 8e a0 f5 bd 8a 8d 8e be 2a 09 73 3d 54 43 c3 3d
       -0.11993514 -0.2784236 0.05933491 0.09534326
0000d0 ed e3 3f bb b0 f1 ac 3e 1a bb ff bc cb f8 ae be
       -0.0029280141 0.33778143 -0.031217147 -0.3417419
0000e0 51 20 9b 3e 04 47 58 3e 24 80 c1 bd 97 8d 0f 3e
       0.30298093 0.2112084 -0.09448269 0.14018856
0000f0 bf 12 21 3e 6d 29 b1 be fa eb ab 3e f0 83 73 3e
       0.15729807 -0.34601918 0.33578473 0.23780799
000100 15 4a e5 3b 5a 59 02 be 12 67 80 3e 70 ac b0 3e
       0.0069973567 -0.12729397 0.25078636 0.3450656
000110 e8 be f6 bd e8 b6 27 3d 48 86 bd bc 24 97 af 3e
       -0.12048131 0.040945917 -0.02313532 0.34295
000120 ea 4b 8c bd 51 c1 db bd d2 f7 53 3e 2d 20 06 be
       -0.06850417 -0.107302316 0.20700005 -0.13098212
000130 3c 69 c3 bd 3b 02 9d 3e 0a 6b 62 be 83 10 b8 3e
       -0.09541556 0.30665764 -0.22111145 0.35950097
000140 5f 2a 42 3e ed a3 a7 be 67 fd 14 be 84 91 73 be
       0.18961476 -0.32742253 -0.1454979 -0.23785979
000150 04 14 1c 3e 89 4e 83 3a 8a 00 71 bd d7 d2 aa 3e
       0.1524201 0.0010017912 -0.058838405 0.33363983
000160 22 d7 10 be 5c af 85 3e 36 b5 95 be e0 ae 8b 3e
       -0.14144567 0.2611035 -0.29239815 0.27281857
000170 ca bb c0 bd 53 b1 ac be c2 0e 55 be 7d 2f 4f 3e
       -0.09410818 -0.33729038 -0.20806411 0.20232959
000180 c2 99 da bd 57 b3 39 be e0 98 6d 3d f8 75 00 3e
       -0.10673858 -0.18134819 0.05800712 0.12545002
000190 9d 46 86 3e e3 ce a8 3e f0 54 7d be 58 03 0d 3e
       0.2622575 0.32970342 -0.24739432 0.13770807
0001a0 bf e8 a1 3e 25 8d 99 3e 97 df 82 3e ba cf 2a be
       0.31622884 0.29990497 0.2556121 -0.16680804
0001b0 e2 d4 28 3e 55 b6 55 be d1 2d 37 be 44 12 a3 3d
       0.16487458 -0.20870335 -0.17888571 0.07962468
0001c0 40 b5 cd bc ae c7 7a 3e f8 bf a4 be f6 77 e8 bd
       -0.02511084 0.24490234 -0.3217771 -0.11351006
0001d0 b2 c7 a3 be 20 6f 44 bd f5 54 8e be 90 aa c9 3c
       -0.31988293 -0.04795754 -0.27799192 0.024617463
0001e0 72 ea a7 be 6e 21 6c be 77 72 06 be b8 8e 26 3d
       -0.32796055 -0.23059627 -0.13129602 0.04066345
0001f0 94 00 9d be d9 cb 89 3e 9e 00 6b 3e c0 e9 24 bc
       -0.30664504 0.26913336 0.22949454 -0.010065496
000200 b4 0a da bd 4b f9 26 be 55 2a 93 3e c1 1d 40 3d
       -0.10646573 -0.16306035 0.28743234 0.046903376
000210 04 a0 d1 bd d0 c6 be bc b4 98 a0 3d dc 2d 70 be
       -0.10235599 -0.02328816 0.07841626 -0.23454994
000220 d1 dc 95 be c6 cf 11 be ca 09 56 3e 0b b9 01 bd
       -0.29270032 -0.14239416 0.20902172 -0.03167061
000230 02 88 e7 3c 2d 37 a7 3c 1c f1 75 3e 85 cb 50 3d
       0.028263096 0.020412052 0.24017757 0.05097534
000240 c0 49 23 be 17 1a cc bd 82 93 59 be fe 13 60 be
       -0.15946102 -0.09965914 -0.21247676 -0.21882626
000250 11 1c 92 be 77 d2 a4 bd 9d f9 92 3d a3 40 a6 be
       -0.28537038 -0.080479555 0.07176516 -0.3247119
000260 89 8d 83 3e 5a fa 88 3d 4f f5 80 3e 0c a1 36 3e
       0.2569392 0.06688376 0.25187156 0.17834872
000270 1e d7 37 3e 9b eb 8c be 94 a3 86 be f6 ad b1 3d
       0.17953154 -0.27523503 -0.26296675 0.086757585
000280 6b 86 3d be 68 bf 60 bd 72 4b 2a 3e 70 6a 95 3c
       -0.18508308 -0.05487004 0.16630343 0.01823923
000290 3f 53 96 be db 45 b4 3e 7e f4 59 be 38 72 97 3d
       -0.29360387 0.35209545 -0.21284673 0.073948324
0002a0 8c 67 ca 3d bc 56 6b be 54 57 c7 bd 82 8f 11 3e
       0.09883031 -0.22982305 -0.097334534 0.142149
0002b0 1c 67 56 be 65 5d 9d 3e 94 2b 91 be a0 fe 8c bd
       -0.2093777 0.30735317 -0.2835356 -0.06884503
0002c0 be 78 6f be 29 fa 5b be 8f 2e b1 be 4b 10 8b 3e
       -0.23385903 -0.21482147 -0.34605834 0.27160868
0002d0 6a 35 73 3e e6 b5 9f be 24 0c 40 be f0 dc 67 3d
       0.23750845 -0.31193465 -0.18754631 0.056607187
0002e0 dc d2 72 be e2 6e 02 3e c0 eb 04 bc ae 8e 21 3e
       -0.23713249 0.12737611 -0.008112848 0.15777084
0002f0 60 14 87 3c 6e 62 36 3e 6c b8 e7 bd f0 3c e4 bc
       0.016489208 0.17810985 -0.113144726 -0.027861089
000300 50 73 c7 3c 5c 20 f2 bd 8d 81 8b 3e 40 bc c6 bb
       0.024346977 -0.11822578 0.27247277 -0.0060649216
000310 40 33 b7 bd 40 3f fe bc 2b d5 9e 3e 50 7c 8d bd
       -0.08945322 -0.03103602 0.3102201 -0.06908476
000320 30 de 41 be 88 f9 d5 3d 80 d8 0e 3b ad e6 0a be
       -0.18932414 0.10447985 0.0021796525 -0.13564558
000330 58 bf a7 be 3c 4c 8f be 49 be 94 3e d0 61 bb 3d
       -0.3276317 -0.2798785 0.29051426 0.09149516
000340 90 29 d3 bd 48 6b 6d bd 11 f9 6e be a0 32 27 bc
       -0.10310662 -0.05796364 -0.23337199 -0.010204941
000350 3c d9 8f be d0 89 eb 3c 60 30 6d 3c a8 72 01 3d
       -0.28095424 0.028752238 0.0144768655 0.031603485
000360 06 ab ac be 8c 10 79 be 6c 37 8b bd 7a 13 d9 bd
       -0.3372423 -0.24322718 -0.0679768 -0.10599418
000370 18 7a 97 3d b2 8a 9d be e0 bc 26 be 32 a6 34 3e
       0.073963344 -0.3076988 -0.16282988 0.17641523
000380 68 a6 f8 bd c5 8d 0e be a3 80 ad 3e 4d 25 ae 3e
       -0.121411145 -0.13921268 0.33887205 0.34012833
000390 40 d4 8f bd 47 3b 99 3e 1c 6f b4 be 30 16 18 bd
       -0.07022905 0.29928038 -0.3524102 -0.037130535
0003a0 c7 59 e1 bd 40 b2 97 3d 4a a5 f7 bd 84 3a 79 3e
       -0.11003452 0.07407045 -0.12092073 0.24338728
0003b0 6c ec 62 bd c5 6b 82 3e ac d3 52 3e cf 93 83 be
       -0.05540125 0.25472847 0.20588559 -0.25698707
0003c0 4f f6 a7 bd 8e ea 3c 3e 2f 0e 41 bb 86 96 79 3e
       -0.082012765 0.1844885 -0.0029457917 0.24373826
0003d0 06 7c e3 bd 62 08 92 3e 2e 35 a4 3e f7 3a a2 3e
       -0.1110764 0.2852202 0.32071823 0.31685612
0003e0 f2 b4 01 be 5c f7 df bd 1a da 4e 3e a1 a2 4f 3e
       -0.12666681 -0.10935852 0.20200387 0.20276882
0003f0 3f b5 35 3e 12 0a 80 3e 90 e6 a7 be 09 58 84 bc
       0.17744921 0.25007683 -0.32793093 -0.01615526

arith.constant2 f4 [32, 64]
000000 6f 97 60 be 69 98 32 be 5e ba 07 3d 2c 51 40 3e
       -0.21932767 -0.17440952 0.033136718 0.18780965
000010 7e e4 c7 3d a8 20 9b bd 12 24 83 be 2d fe 08 3e
       0.09760378 -0.07574588 -0.25613457 0.1337821
000020 c1 ee 2b 3e e5 69 84 bd 38 ed 76 3e f9 87 32 3e
       0.16790296 -0.0646551 0.2411393 0.17434682
000030 78 56 cb bd 07 59 83 be 42 1b c1 bd 67 15 96 3d
       -0.09928602 -0.2565386 -0.09429027 0.07328301
000040 c4 31 6f be 8a f5 c4 bd 49 50 1e bd 92 b1 77 be
       -0.23358828 -0.09617145 -0.038650785 -0.24188831
000050 fe ad b2 bd 5e 1b 1c be f9 97 99 bd da 34 ac be
       -0.087245926 -0.15244815 -0.074996896 -0.33634073
000060 1e 89 63 3e d6 39 5c bc 93 72 1c 3e 00 80 15 3b
       0.22220275 -0.013441524 0.15278082 0.002281189
000070 19 3d 1c 3e d8 ba 1f 3e b4 91 8e be ea 2d 91 3d
       0.15257682 0.15598619 -0.27845538 0.070888355
000080 bb f0 0c be 48 bb ea 3d b6 d8 e3 bd e7 de 9f 3d
       -0.13763706 0.11461502 -0.11125319 0.07806187
000090 c0 f0 57 3e 12 f4 3c be 7f 05 47 3c ac 3b ec 3b
       0.21087933 -0.1845248 0.012147306 0.007209262
0000a0 84 08 11 be 0c 88 37 3e dc 1d 64 3e 29 7d 48 3c
       -0.14163405 0.17922992 0.22277015 0.012236872
0000b0 45 e8 07 be 8e a8 27 3e 5b 83 50 bd b2 01 47 bd
       -0.13272198 0.16372892 -0.05090652 -0.0485856
0000c0 4f 57 78 3d 7b 59 0a be 74 c2 27 3e 4b b8 21 be
       0.06063014 -0.13510697 0.16382772 -0.15792958
0000d0 f5 f5 7e 3e c0 d2 91 bd d1 46 7e 3e e6 f7 01 3e
       0.24898513 -0.071202755 0.24831702 0.12692222
0000e0 60 d6 d8 bd eb 57 76 be df 2d 90 be b1 c8 30 3e
       -0.10587764 -0.24056976 -0.28159997 0.17264058
0000f0 ed 86 9b 3c 7e 9e 79 3e 78 c5 04 be 1b e1 07 be
       0.018985236 0.24376866 -0.12965953 -0.13269465
000100 64 ae 0c be da 72 59 3e 76 ba e7 3c 68 01 f5 3d
       -0.137384 0.21235219 0.028287154 0.11963159
000110 34 7e 1f 3e f6 7a d0 bd d7 a0 3c 3d fa f0 67 3e
       0.15575486 -0.10179703 0.046051826 0.22650519
000120 8a 85 7e 3e 3f 47 10 3e d2 73 96 3c f6 ed 56 be
       0.24855629 0.14089678 0.018365774 -0.20989212
000130 00 69 33 be 31 1b ea 3d 15 8b 6e 3d 56 0a 1c 3d
       -0.17520523 0.114309676 0.058238108 0.038095795
000140 90 1d 09 3e ee 2c ca 3c 67 79 0e be d4 e3 49 be
       0.13390183 0.024679627 -0.13913499 -0.19715816
000150 f3 46 fa bc 98 63 73 be 7f 32 52 bd d8 4e 49 be
       -0.03055141 -0.23768461 -0.051317688 -0.19658983
000160 5a 51 d2 3d 05 88 a3 3d 57 aa f7 bd 61 1c d4 bd
       0.10269423 0.07984928 -0.120930366 -0.10356975
000170 4d 7c e2 bc 90 bb 75 3e 6c 61 2b be ec ad 4c 3e
       -0.027647162 0.2399733 -0.16736382 0.19988221
000180 16 a1 13 3e 51 19 16 be a4 9e 5e 3e b0 49 6e 3e
       0.14416918 -0.14658095 0.21740204 0.23270297
000190 f0 35 2a be d7 dd e4 bd 31 34 bb bd 68 71 2e bd
       -0.16622138 -0.11175125 -0.09140814 -0.04258862
0001a0 eb 4c 26 3e 64 b3 a4 bd e6 58 2a 3e 60 97 6e 3b
       0.1624028 -0.080420285 0.16635475 0.0036406144
0001b0 03 91 72 3e e7 ba 8f 3d c6 5d 63 3d df 98 51 3e
       0.2368813 0.07018071 0.05550935 0.20468472
0001c0 a5 8d 32 3e 73 39 1f 3d 68 d2 83 3d 11 47 dc bd
       0.17436846 0.038873147 0.06436616 -0.10755742
0001d0 64 62 55 3e c0 ea e5 3c de 72 14 be ee 01 0e 3d
       0.20838314 0.02806604 -0.14496943 0.03466981
0001e0 50 5a 0b be 79 e5 12 3e c3 df 44 bd c3 3c 9a 3d
       -0.1360867 0.1434535 -0.04806496 0.07531121
0001f0 53 12 1a 3e 0e 0e 66 be 18 f4 1f be b8 4b 98 3c
       0.15046053 -0.22466299 -0.15620458 0.018590793
000200 b8 44 0c be d0 e2 d6 bd 00 85 43 bc 78 cf d3 3d
       -0.13698089 -0.1049248 -0.011933565 0.10342306
000210 11 ba 37 3e e8 41 c7 3c f8 a7 a8 bd fc ca 55 3e
       0.17942072 0.024323419 -0.082351625 0.20878214
000220 8c 58 b7 bd e8 7d bf 3d 5c 8a b0 3c 3f c7 ea 3d
       -0.08952436 0.093501866 0.02155035 0.114637844
000230 2a c4 eb bd 50 5e aa 3d 00 17 f1 3b 87 4d 67 be
       -0.11512025 0.0831877 0.007357478 -0.22588168
000240 28 a1 81 bd 24 3a 2a 3d 64 b4 63 be 08 ab f6 bd
       -0.06329566 0.041559353 -0.22236782 -0.1204434
000250 85 55 cd bd 39 d2 69 be 61 fe 50 3d 00 fc 35 bb
       -0.10026077 -0.228341 0.051023845 -0.0027768612
000260 31 fb d0 3d 6b 57 fb 3d 50 47 6c 3e 00 a4 24 bb
       0.10204161 0.12272533 0.23074079 -0.0025122166
000270 64 11 b7 3d e8 4a f2 3d 35 2f 5e 3e 72 55 7a bd
       0.08938864 0.118306935 0.21697696 -0.061116643
000280 5f e7 34 3e 28 6e 3c be f4 1d 35 be 39 be 48 be
       0.17666386 -0.18401396 -0.17687207 -0.19603814
000290 70 4c 76 3e d4 e7 1c 3e 80 a3 71 bd 5c eb 3b 3e
       0.24052596 0.1532281 -0.058993816 0.18351501
0002a0 3e 74 5b bc 0d bd 6a be a1 03 65 3e a3 b7 2b be
       -0.0133944135 -0.2292368 0.22364666 -0.1676927
0002b0 a5 ee 3d 3e 79 b6 21 bd 40 d9 1b 3e 80 67 90 3b
       0.18548067 -0.03948066 0.15219593 0.0044068694
0002c0 24 f2 0e 3d bb cd 30 be 40 ab 46 be 30 0d 55 bd
       0.034898892 -0.1726598 -0.19401264 -0.05201453
0002d0 3c 89 3e be 98 76 11 3e 71 c6 15 3e ea 65 63 be
       -0.18607038 0.14205396 0.1462648 -0.22206846
0002e0 80 66 6b 3e b3 59 e5 3b 78 a5 2e 3e 4d 54 d9 3d
       0.2298832 0.0069992184 0.17055309 0.10611782
0002f0 ff 31 30 be 87 58 a7 3c 38 82 35 3e bb 30 1b be
       -0.17206572 0.020427955 0.17725456 -0.15155308
000300 f5 4a 5c be df 2a a9 bd 4e 7d 96 be c0 4a 3b be
       -0.21512969 -0.0826013 -0.29392475 -0.18290234
000310 5e d6 2f 3d f5 3e 86 3c 0a 3a 93 be 5d fd 72 3e
       0.042929046 0.016387442 -0.28755218 0.23729463
000320 6d c5 a4 bd c8 22 45 3e ae a1 2b 3e 2d dd 9e 3d
       -0.080454685 0.19251549 0.16760895 0.0775703
000330 0e ee 24 3e f8 90 39 3d 10 3f 8b be 2b 24 60 be
       0.16106436 0.04530427 -0.2719655 -0.21888797
000340 00 d1 0a bc d6 08 98 be 98 f4 79 be 12 e1 95 be
       -0.008472681 -0.2969424 -0.24409711 -0.29273278
000350 ea 7a 1b be b8 87 20 be ec f7 90 3e 6f a7 a5 be
       -0.15183607 -0.15676773 0.2831415 -0.32354304
000360 68 b0 e7 bd 92 77 3e be b0 28 f8 3d c4 ff 4a 3e
       -0.11312944 -0.186003 0.121171355 0.1982413
000370 50 62 0c 3e 9c ee 45 3e b6 c0 2b bd a0 ca db 3d
       0.13709378 0.19329304 -0.04193183 0.10732007
000380 1c 89 d6 3d b0 f9 06 3e 7d a5 31 3e 69 6a f9 3d
       0.1047537 0.13181186 0.17348285 0.12178499
000390 44 c7 39 be a5 fa 25 3c 6f bc 5a be 27 01 0e be
       -0.1814242 0.010130559 -0.21360944 -0.13867627
0003a0 c2 36 16 3e 4e 1f 79 bb d2 73 0a 3e b1 ce 18 3e
       0.14669326 -0.0038013044 0.13520744 0.14922597
0003b0 6f 39 29 be 6e 9c e0 bd 96 e7 55 be df 4a 82 bd
       -0.16525815 -0.109673366 -0.20889124 -0.06361937
0003c0 20 79 da 3d 1b 24 3c be 48 11 2e 3e 58 c1 89 3e
       0.10667634 -0.18373148 0.1699878 0.26905322
0003d0 17 b1 67 3e 84 1b 5a be e6 b5 7d 3e 5e 3f ef 3d
       0.22626148 -0.21299559 0.2477642 0.11682008
0003e0 98 40 dd bd 45 4d 23 be 54 eb ec bd d9 ff 1f be
       -0.10803336 -0.15947445 -0.11568323 -0.15624942
0003f0 5c 28 27 be e4 30 2b be c4 fe 37 be f0 4a ec 3c
       -0.1632399 -0.16717869 -0.17968279 0.028844327

arith.constant4 f4 [16]
000000 f3 ea 8d 3c ef 5b 09 3d c7 01 fb 3c 00 00 00 00
       0.017323947 0.03353494 0.030640496 0.0
000010 b3 83 53 bc 00 00 00 00 00 00 00 00 74 db a2 bc
       -0.0129098175 0.0 0.0 -0.019880034
000020 3e cb fa 3c f6 2c 92 bc 5a 99 61 bc 00 00 00 00
       0.030614492 -0.017843705 -0.013769472 0.0
000030 5f fe f3 3c 62 84 f7 3c 37 67 72 bc 40 e7 9c bc
       0.02978438 0.030214492 -0.014795116 -0.019153237

arith.constant5 f4 [32]
000000 73 69 e3 3c 12 07 91 3c 43 86 b1 bb 3a 65 8b 3d
       0.027760243 0.017703567 -0.0054176166 0.06806417
000010 00 00 00 00 00 00 00 00 0a 4d f1 3c 8c 7d 6d 3d
       0.0 0.0 0.02945568 0.05798106
000020 5e a3 d0 bc 07 ee 82 ba 00 00 00 00 44 39 51 3d
       -0.025468525 -0.000998915 0.0 0.051080003
000030 5e ea fb 3c b9 0e 0f 3d 8b 2f 7d bc d8 39 dc 3c
       0.030751403 0.03492615 -0.01545323 0.02688305
000040 eb 23 ed 3c 28 bf cd bc a0 90 a3 bc 00 00 00 00
       0.028947791 -0.025115564 -0.019966424 0.0
000050 94 bf df 3c df 62 0c 3d 07 11 44 bc 00 00 00 00
       0.027313031 0.03427398 -0.01196695 0.0
000060 e1 31 5f 3d 17 af 16 3d 00 00 00 00 92 53 1b 3d
       0.054490928 0.036788072 0.0 0.037921496
000070 d9 d2 00 bc 92 0b 16 bc f8 41 81 bc e9 ff 02 3d
       -0.00786277 -0.009158032 -0.015778527 0.031982336

sequential_40_1/dense_160_1/Add/ReadVariableOp f4 [64]
000000 8a 14 dc bc c4 9a 87 bc e6 91 71 3d 00 00 00 00
       -0.026865263 -0.01655329 0.05897703 0.0
000010 33 4d f1 bb 56 4a 01 3d 4b 97 6e bd 0c 7c 39 3d
       -0.007363939 0.031565033 -0.058249753 0.045284316
000020 c9 5b 4a 3d 5c d1 72 bc 5b 41 e4 bc 49 f3 1f 3d
       0.04940394 -0.014820423 -0.027863195 0.039050374
000030 42 69 d5 bc af 60 85 bc b5 08 9c bc 1f c7 f6 bc
       -0.026051167 -0.016281454 -0.01904712 -0.030124245
000040 00 00 00 00 c0 d4 86 bc a6 85 01 bd 0d 2b ac 3d
       0.0 -0.016458869 -0.031621598 0.08406649
000050 0f fd cc bc d8 b3 0f bd 03 15 dc 3d 77 45 f1 3d
       -0.025023011 -0.03508362 0.10746195 0.117808275
000060 be 54 19 3d 58 44 e1 3c 6d 96 12 bc 03 42 c4 bb
       0.037434332 0.02749841 -0.008946997 -0.0059893145
000070 ab 11 2e 3d d0 e1 d3 3b 0d d4 f6 3c c2 3d 00 3d
       0.04249732 0.006466128 0.03013041 0.031308897
000080 c2 26 fd 3c e3 f9 7f bc 65 1e bc 3c 75 25 1e 3d
       0.03090227 -0.0156235425 0.022963712 0.03860994
000090 00 00 00 00 5b 5a 98 3d 83 e4 30 bd c1 99 1c 3d
       0.0 0.07439109 -0.043186676 0.03823257
0000a0 c0 f3 bf bc b7 1d 22 3d 61 35 9e 3c 15 e4 37 bc
       -0.023431659 0.03957912 0.019312562 -0.011223813
0000b0 67 9b 54 3c cb 22 0f 3d 8e 24 d1 bc e4 e0 44 3d
       0.012976504 0.03494529 -0.025530126 0.048066035
0000c0 db 1c 02 3d 50 ec 18 3d 00 00 00 00 e9 48 b8 bc
       0.0317658 0.03733474 0.0 -0.022495704
0000d0 03 77 0b 3d 00 00 00 00 2c b5 20 3d ee a4 52 bd
       0.034049045 0.0 0.03923528 -0.05142682
0000e0 00 00 00 00 2c 2c ee bc a0 c9 aa 3c 3b 34 40 bd
       0.0 -0.029073797 0.020848095 -0.04692481
0000f0 bb 91 6f bc 3f 92 e0 3c 00 00 00 00 d5 27 26 3d
       -0.014622147 0.027413486 0.0 0.04056533

sequential_40_1/dense_160_1/MatMul f4 [64, 5]
000000 56 96 99 be 64 d8 3d 3e a9 56 77 3e c6 88 a6 be
       -0.2999751 0.18539578 0.24154152 -0.32526225
000010 e4 b5 90 bd 70 d0 00 3d 2e ad cc bd f5 26 95 3b
       -0.07065943 0.03144878 -0.09993969 0.004551763
000020 ff cc c7 bd 39 a6 1f 3e db a6 4e 3e 6a 65 e1 bd
       -0.09755897 0.15590753 0.20180838 -0.11005671
000030 ab 8b 84 3d d9 ba e6 be 7e ba 2b be d0 b9 99 3d
       0.06471952 -0.45064428 -0.1677036 0.07506144
000040 e0 2a 52 be 20 1b b5 3c d8 ea 05 bd ae 0e 4d be
       -0.20524168 0.02210766 -0.032694668 -0.20025131
000050 bd 10 c4 3d 89 ba 21 3e 20 70 1d be 55 59 6f 3e
       0.09573505 0.15793814 -0.15374804 0.23373921
000060 7c 6d 98 bd 95 3d 8a 3e f6 c4 1e be a1 df 5c 3d
       -0.074427575 0.27000108 -0.15504822 0.053924207
000070 1f 1d f0 bd b3 9b d2 3d 9b de 35 be 21 79 43 3c
       -0.117243044 0.102836035 -0.17760698 0.011930735
000080 30 00 28 be 7f ef a5 bd 2c 73 2b 3d 89 6f 9d 3d
       -0.16406322 -0.08102321 0.041857883 0.07687289
000090 b3 4c bb bd b7 72 62 3e e3 e0 73 be f4 73 e5 3d
       -0.091454886 0.22114073 -0.23816256 0.11203757
0000a0 53 94 f4 3b 21 75 6a 3e 6a a7 79 be 0a 1e 27 bd
       0.0074639707 0.22896244 -0.2438027 -0.04080013
0000b0 2b f8 a3 3e 96 39 2a 3e eb 87 60 be 7e cc 04 bd
       0.32025275 0.1662353 -0.21926849 -0.03242158
0000c0 85 50 95 3d e1 d0 52 be 23 b8 bc bd f2 83 9f 3d
       0.072907485 -0.20587493 -0.09214809 0.077888384
0000d0 b5 b2 56 3e bc 47 b5 bb aa 77 d6 bd 70 c3 4b 3e
       0.20966609 -0.005532233 -0.10472043 0.19898772
0000e0 ed 14 92 bd 4f 47 9e 3e df d5 43 be 2f ef 93 3e
       -0.071328975 0.3091378 -0.19124554 0.2889342
0000f0 75 eb 55 3e 0d b4 c4 3d 51 09 9a 3c f9 26 cd bd
       0.20890601 0.096046545 0.01880327 -0.10017199
000100 0b 82 28 be 99 36 8a bd 16 aa d8 3c a1 36 50 be
       -0.16455857 -0.06748695 0.02644829 -0.2033334
000110 52 cc de 3c 18 c5 5c 3c cc 8c 55 be ec 2b fa 3d
       0.027197037 0.013474725 -0.20854491 0.12215409
000120 f4 08 63 3e 2e 14 15 be da f5 2b be ea 3e 6b 3e
       0.22171384 -0.14558479 -0.16793004 0.22973219
000130 05 97 3e be 19 92 9c bc 3a 3e 6a bc 60 50 0c 3e
       -0.18612297 -0.019112634 -0.0142970625 0.13702536
000140 95 94 00 be d9 fc 83 be 70 68 7e 3d a8 f4 2c 3e
       -0.1255668 -0.25778845 0.062111318 0.16890204
000150 1a 8e bc bd f8 41 48 be fd c4 ef 3d b3 e8 0e 3d
       -0.09206791 -0.19556415 0.117074944 0.034889888
000160 c5 ac 8a 3e 30 6d 85 be b7 ed 87 3e 1a 3f b0 3d
       0.27084938 -0.26059866 0.2654855 0.08605786
000170 fe d6 67 3d 97 73 b0 3d 9d 6f bf 3d 6c bc 78 be
       0.056601517 0.08615797 0.093474604 -0.24290627
000180 10 65 98 be e6 33 a6 be ba f4 f8 bd b1 0f 5b 3e
       -0.29764605 -0.3246147 -0.12156053 0.21392705
000190 cb 39 9a be 5a b4 9f 3d 27 18 86 3e 51 4a db 3d
       -0.30122218 0.07798071 0.26190302 0.10707534
0001a0 c0 ff d9 3d 84 43 0e 3e 87 90 59 3d b1 42 1b bd
       0.106444836 0.13892943 0.053116348 -0.0379054
0001b0 52 d2 6e 3e ef 7d 0e be 35 4d 69 be 01 98 83 3e
       0.23322418 -0.13915227 -0.22783358 0.25701907
0001c0 bf f6 9a be b1 78 0a 3e cb 39 8a be b2 84 65 be
       -0.30266377 0.13522603 -0.26997218 -0.224139
0001d0 26 64 bd be 87 5b ad be 5e f6 78 be 6c c5 34 3e
       -0.3699047 -0.33858892 -0.24312732 0.17653435
0001e0 46 4c eb 3d b7 d2 0c 3e b6 b6 12 3e 23 e0 4d 3d
       0.114891574 0.13752256 0.14327511 0.05026258
0001f0 40 4a be 3d 86 8b 6d 3d 10 12 58 3d da 83 0e 3d
       0.09291506 0.057994388 0.0527516 0.034793712
000200 30 5e 27 3e 02 73 ae 3d 71 32 34 3d a0 fa 4a bd
       0.16344523 0.0851803 0.043993417 -0.04955542
000210 9f 96 45 bc 54 42 08 be 81 37 4c bb 5b 44 85 be
       -0.012059837 -0.13306552 -0.0031161013 -0.26028714
000220 40 ba 73 bc d6 fb c4 bd 54 04 2f 3e 83 67 bb bb
       -0.014875948 -0.096183464 0.17091495 -0.0057191267
000230 fe 4b 69 bd 7e 78 78 3d db 3e 6f 3e a0 c8 20 3e
       -0.056957237 0.060661785 0.23363821 0.15701532
000240 55 f3 6d bd ec 58 3e be 98 ce ee 3c 4c e7 7d 3e
       -0.058093388 -0.18588609 0.029151246 0.24795264
000250 27 05 75 bd c7 f7 0f 3e d3 2a 2c 3d 8b dd 72 bc
       -0.059819367 0.14059363 0.042033028 -0.014823328
000260 03 78 1f 3e 81 3a ed 3d 9e b5 bd be d8 82 81 3e
       0.15573125 0.11583424 -0.37052625 0.25295138
000270 e6 58 66 3e de e9 b1 bd 40 14 52 3e 7e e4 b4 3d
       0.2249485 -0.08687185 0.20515537 0.08832644
000280 d5 a2 7e 3b 60 f1 18 3e 43 f5 78 3e 87 b2 e6 3c
       0.003885438 0.14935827 0.2431231 0.0281613
000290 1b 5a 9c 3e 35 0f 6d be cf cd 1f 3e df a5 58 be
       0.30537495 -0.23150332 0.15605853 -0.21157025
0002a0 98 21 85 3e 88 10 79 be ea 0d 6f 3e 5c fb d1 3d
       0.26002192 -0.24322712 0.23345152 0.10253021
0002b0 62 7d 63 be b4 9c 80 be b7 44 90 3e 36 47 9a 3e
       -0.22215798 -0.25119555 0.28177425 0.30132455
0002c0 37 4a 8f 3e 89 b5 e1 3d ec 3c 88 be 77 46 15 bd
       0.2798631 0.11020953 -0.2660898 -0.036444154
0002d0 4e 3d e0 bd 80 82 9d 3b 1b 3e 88 be 80 35 f7 bc
       -0.10949193 0.0048068166 -0.26609883 -0.030176878
0002e0 28 e8 8b be 88 6c 20 3e b2 f7 b2 bd 3a 87 56 be
       -0.2732556 0.15666401 -0.087386504 -0.20950022
0002f0 54 ea 48 3d 71 af 90 3e a7 21 90 bd cd f7 b9 3d
       0.049051598 0.2825885 -0.07037669 0.090804674
000300 64 7e 83 be 2b 73 a7 bd a4 73 70 3e 1c 53 a3 bd
       -0.25682366 -0.081762634 0.23481613 -0.07974836
000310 f1 71 d4 bd a5 f7 0f be e8 93 36 be 90 ac 55 3d
       -0.10373295 -0.14059313 -0.1782986 0.05216652
000320 83 3c 74 3d eb 3b 58 3e 68 ee 85 3d f2 ae 00 3e
       0.05962802 0.21116607 0.06539613 0.12566736
000330 af ad 91 be 64 55 55 3e 9d e8 47 be 34 6c 63 3e
       -0.28452823 0.20833355 -0.19522329 0.22209245
000340 49 1d 87 3d a8 51 5d 3c de 08 42 be 59 d2 ee bd
       0.065973826 0.013508238 -0.18948695 -0.116612144
000350 f7 7c 78 3e 97 da 61 3e 5b 34 1b 3e 82 11 94 3b
       0.2426642 0.22056042 0.15156691 0.0045186887
000360 21 dc 49 be 31 58 5f 3e 46 ea d5 3d 96 54 d5 3c
       -0.19712879 0.21810986 0.10445075 0.02604131
000370 4e 56 3d 3e 8a 39 1e be 47 43 4b 3e 26 6b a3 3d
       0.18489954 -0.15451637 0.19849883 0.07979421
000380 a1 21 9f be a3 72 43 be 16 6d 1a 3e 36 e1 e3 bd
       -0.31080344 -0.19086699 0.15080675 -0.1112694
000390 b8 bf 66 3e 5e 43 85 3e 0c 33 8b 3d f0 12 38 3b
       0.22534072 0.2602796 0.06796846 0.002808746
0003a0 f3 51 db 3c 98 2e 89 be aa c1 79 3d b2 ce 47 be
       0.026772475 -0.2679336 0.060975708 -0.19512442
0003b0 2b 4b 33 be 78 19 9c 3e 77 71 5d 3d 88 8f 35 3e
       -0.17509143 0.3048818 0.054063287 0.17730534
0003c0 e3 e7 88 3e 84 0f 64 3d 99 19 18 be 54 0a 90 bc
       0.26739416 0.05567886 -0.14853515 -0.01758305
0003d0 35 92 45 bd ee dc 9b 3c 85 81 9d 3e 97 d9 ee 3d
       -0.048235137 0.019026246 0.30762878 0.11662596
0003e0 5f 72 c7 bd 55 c9 12 3e 64 f8 3b be 47 87 82 be
       -0.097386114 0.14334615 -0.18356472 -0.25493833
0003f0 14 a3 1e be 80 ed fa 3c d8 c2 3c bd 60 24 f8 3d
       -0.15491897 0.030630827 -0.046084255 0.12116313
