app/src/main/assets/rice_blast_model.tflite (tflite, 2604 bytes, 5 tensors)

arith.constant f4 [1, 10]
-0.289136 -0.12058824 -0.0013544301 -0.37254217 -0.26001155 0.24636433 -0.044987086 -0.35334978
-0.53034335 -0.5748035
00000000: a209 94be f8f6 f6bd 2287 b1ba d9bd bebe
00000010: 3c20 85be ee46 7c3e 6144 38bd 43ea b4be
00000020: 95c4 07bf 5226 13bf

arith.constant1 f4 [10, 10]
-0.47132438 -0.41788745 -0.5036588 0.034996293 0.21825238 0.19081497 -0.10210393 0.14732063
-0.47213393 -0.19978255 0.55506855 -0.23331477 0.4010649 -0.42014804 -0.52252537 -0.18508856
0.35726857 -0.08944825 -0.08906666 0.014860558 0.39308605 -0.096826345 0.50261533 0.44831246
-0.0020105566 -0.110060446 -0.49854872 -0.081889614 0.3086619 0.17398097 -0.48865107 0.3232225
0.47675684 0.14599635 -0.537 -0.39304858 0.14478172 0.11588026 -0.17546324 0.39934006
-0.51360345 -0.4750929 -0.03336233 -0.53144413 0.24348846 -0.5656111 0.18801133 0.26894608
0.17544426 -0.39992535 0.40432435 0.6036238 0.18185942 0.10473152 0.27105495 0.29436475
0.047050793 -0.1908287 -0.17259912 -0.19278486 -0.18420766 -0.55705416 -0.14797108 -0.22860429
0.011525359 0.38117078 0.42620364 -0.5344517 -0.31098 0.07431688 -0.5043011 0.30166674
-0.44577584 0.40628254 -0.48830366 -0.46628216 -0.58039665 0.015359198 -0.45490715 0.31266022
-0.24742578 -0.1435786 0.26206356 0.060911182 -0.45304164 0.18574487 0.108288966 -0.09632956
-0.31496167 -0.49273112 -0.52091527 -0.024189191 0.21519703 -0.41418743 -0.3361952 0.3245199
0.035789967 -0.33659866 0.15650405 -0.26472333
00000000: 6e51 f1be 58f5 d5be c8ef 00bf 4658 0f3d
00000010: 8d7d 5f3e 0065 433e de1b d1bd 38db 163e
00000020: 8abb f1be cc93 4cbe f918 0e3f 11ea 6ebe
00000030: 6158 cd3e a51d d7be 39c4 05bf db87 3dbe
00000040: e8eb b63e a530 b7bd 9568 b6bd b379 733c
00000050: 9342 c93e e44c c6bd 66ab 003f 3689 e53e
00000060: 8bc3 03bb 5f67 e1bd c741 ffbe beb5 a7bd
00000070: ef08 9e3e 1128 323e 7930 fabe 6b7d a53e
00000080: 7919 f43e 1180 153e d578 09bf aa3d c9be
00000090: a941 143e a152 ed3d a3ac 33be 4d76 cc3e
000000a0: 847b 03bf 603f f3be f0a6 08bd b90c 08bf
000000b0: 0a55 793e e4cb 10bf 0b86 403e 4db3 893e
000000c0: a9a7 333e 04c3 ccbe 9a03 cf3e 1787 1a3f
000000d0: 5b39 3a3e 7b7d d63d b7c7 8a3e fab6 963e
000000e0: 55b8 403d 9968 43be d3bd 30be 6569 45be
000000f0: efa0 3cbe 1a9b 0ebf bb85 17be 3e17 6abe
00000100: dcd4 3c3c d128 c33e 5d37 da3e d4d1 08bf
00000110: c538 9fbe 7333 983d e019 01bf 1074 9a3e
00000120: bb3c e4be 4404 d03e f002 fabe 89bc eebe
00000130: e094 14bf 25a5 7b3c 97e9 e8be 0015 a03e
00000140: 2f5d 7dbe 4506 13be 322d 863e 017e 793d
00000150: 13f5 e7be e733 3e3e 9bc6 dd3d 6f48 c5bd
00000160: a842 a1be 4147 fcbe b45a 05bf 6928 c6bc
00000170: 9c5c 5c3e 6010 d4be c721 acbe 7927 a63e
00000180: 8098 123d a956 acbe 9942 203e d189 87be

sequential_1/dense_1_2/BiasAdd/ReadVariableOp f4 [10]
-0.025978979 -0.05235396 0.023700157 -0.09551618 -0.11184704 0.18011722 -0.102937035 -0.10241826
-0.037205316 -0.09354865
00000000: ded1 d4bc 1b71 56bd d526 c23c fd9d c3bd
00000010: 1010 e5bd a670 383e a7d0 d2bd aac0 d1bd
00000020: 9a64 18bd 6f96 bfbd

sequential_1/dense_1/BiasAdd/ReadVariableOp f4 [10]
0.12725954 0.122600265 -0.06494963 -0.0657531 0.055924155 0.058060076 -0.08028434 -0.11735762
-0.10146 -0.06866192
00000000: 5350 023e d915 fb3d 5004 85bd 90a9 86bd
00000010: ba10 653d 67d0 6d3d 1e6c a4bd 3159 f0bd
00000020: 43ca cfbd 9f9e 8cbd

sequential_1/dense_1/MatMul f4 [10, 5]
-0.4084141 -0.2278828 -0.4233183 0.49345818 0.429006 0.17491184 -0.15745151 0.25659093
-0.3793939 -0.5263488 -0.060474403 0.069885194 -0.29770827 -0.021065319 0.3131487 -0.46944562
-0.47210944 -0.26171497 -0.05595672 0.12494421 -0.0037283658 0.0868798 -0.3010773 -0.4232686
-0.25211367 -0.1757152 0.043289933 -0.008353438 -0.20752989 0.51334894 0.055391353 0.39977685
0.20210546 -0.18856095 -0.3054615 -0.0145786395 -0.28039068 -0.2855935 -0.024075346 0.3681578
0.46625638 -0.19665636 -0.27690193 0.65315986 0.55383235 0.080984965 0.5173321 0.1275184
-0.04448095 0.27793273
00000000: a71b d1be 1c5a 69be 2dbd d8be 8da6 fc3e
00000010: ada6 db3e 171c 333e f83a 21be e35f 833e
00000020: eb3f c2be ccbe 06bf 02b4 77bd f81f 8f3d
00000030: 386d 98be 2d91 acbc 0755 a03e 2d5b f0be
00000040: 54b8 f1be 81ff 85be e032 65bd c0e2 ff3d
00000050: 9957 74bb 09ee b13d ce26 9abe a9b6 d8be
00000060: 0b15 81be afee 33be c950 313d dcdc 08bc
00000070: b782 54be d66a 033f 0be2 623d 8daf cc3e
00000080: bcf4 4e3e 1f16 41be 7365 9cbe 3fdb 6ebc
00000090: 5e8f 8fbe 5039 92be a939 c5bc 2e7f bc3e
000000a0: 28b9 ee3e 4960 49be 17c6 8dbe 7c35 273f
000000b0: f5c7 0d3f 72db a53d e06f 043f 2f94 023e
000000c0: a831 36bd 334d 8e3e
